…
--
some config:
data_dir = ./processed
output_dir = ./output
cache_dir = ./data_cache
embedding_path = ./processed/word2vec_50d.txt
embedding_dim = 50
min_freq = 0
encoder = cnn
selector = one
model_name = CNN+ONE
mode = 0
seed = 2020
cuda = 0
epoch = 5
batch_size = 160
dropout = 0.5
lr = 0.001
max_len = 120
pos_dis = 45
pos_dim = 5
filter_num = 230
window = 3
device = cuda:0
model_dir = ./output/CNN+ONE
--------------------------------------
start to load data ...
embedding scale: 91345*50d
finish loading embeddng!
finish loading train!
finish loading test!
finish!
DS_Model(
  (word_embedding): Embedding(91345, 50)
  (pos1_embedding): Embedding(93, 5)
  (pos2_embedding): Embedding(93, 5)
  (encoder): CNN_Encoder(
    (conv): Conv2d(1, 230, kernel_size=(3, 60), stride=(1, 1), padding=(1, 0))
    (maxpool): MaxPool2d(kernel_size=(120, 1), stride=(120, 1), padding=0, dilation=1, ceil_mode=False)
    (tanh): Tanh()
  )
  (selector): ONE(
    (dropout): Dropout(p=0.5, inplace=False)
    (dense): Linear(in_features=230, out_features=53, bias=True)
  )
  (criterion): NLLLoss()
)
traning model parameters:
word_embedding.weight :  torch.Size([91345, 50])
pos1_embedding.weight :  torch.Size([93, 5])
pos2_embedding.weight :  torch.Size([93, 5])
encoder.conv.weight :  torch.Size([230, 1, 3, 60])
encoder.conv.bias :  torch.Size([230])
selector.dense.weight :  torch.Size([53, 230])
selector.dense.bias :  torch.Size([53])
…
some config:
data_dir = ./processed
output_dir = ./output
cache_dir = ./data_cache
embedding_path = ./processed/word2vec_50d.txt
embedding_dim = 50
min_freq = 0
encoder = pcnn
selector = one
model_name = PCNN+ONE
mode = 0
seed = 2020
cuda = 0
epoch = 5
batch_size = 160
dropout = 0.5
lr = 0.001
max_len = 120
pos_dis = 45
pos_dim = 5
filter_num = 230
window = 3
device = cuda:0
model_dir = ./output/PCNN+ONE
--------------------------------------
start to load data ...
embedding scale: 91345*50d
finish loading embeddng!
finish loading train!
finish loading test!
finish!
DS_Model(
  (word_embedding): Embedding(91345, 50)
  (pos1_embedding): Embedding(93, 5)
  (pos2_embedding): Embedding(93, 5)
  (encoder): CNN_Encoder(
    (conv): Conv2d(1, 230, kernel_size=(3, 60), stride=(1, 1), padding=(1, 0))
    (maxpool): MaxPool2d(kernel_size=(120, 1), stride=(120, 1), padding=0, dilation=1, ceil_mode=False)
    (tanh): Tanh()
    (mask_embedding): Embedding(4, 3)
  )
  (selector): ONE(
    (dropout): Dropout(p=0.5, inplace=False)
    (dense): Linear(in_features=690, out_features=53, bias=True)
  )
  (criterion): NLLLoss()
)
traning model parameters:
word_embedding.weight :  torch.Size([91345, 50])
pos1_embedding.weight :  torch.Size([93, 5])
pos2_embedding.weight :  torch.Size([93, 5])
encoder.conv.weight :  torch.Size([230, 1, 3, 60])
encoder.conv.bias :  torch.Size([230])
selector.dense.weight :  torch.Size([53, 690])
selector.dense.bias :  torch.Size([53])
…
